bionoi_autoencoder/trained_model/conv1x1-4M-batch512.pt (torch_old, 265716 bytes, 20 tensors)

module.conv1.weight f4 [16, 3, 3, 3]
00000000: 3433 00ba 4e27 06ba 8aea f3b9 30de 06ba
00000010: 26d5 0aba 3ba4 f7b9 15c2 f5b9 ce94 f8b9
00000020: 4edb deb9 0e93 6bb9 c5ae 85b9 5751 64b9
00000030: ce44 6db9 adc4 80b9 fd57 4fb9 a1b4 0bb9
00000040: 075e 12b9 4721 cfb8 c99f 1a38 6743 06b6
00000050: f963 aa38 245e ce37 f197 a6b6 a437 bc38
00000060: ecb9 a838 9a13 9538 2034 1c39 0cd3 c83d
00000070: e486 dd3d 626f dc3d 7205 c63d 3f23 da3d
00000080: dd4c da3d 0695 b73d 322c c83d 43e3 c73d
00000090: 9056 753c bfbf 8f3c 1ab3 983c c4c6 403c
000000a0: ccc9 823c ec75 8d3c f7d5 293c f273 4c3c
000000b0: 6125 753c 15d8 f3bd fddb ddbd c7bb f2bd
000000c0: 4366 eabd f216 cfbd 29a0 e2bd c1f3 ffbd
000000d0: e693 e6bd 53ba f5bd 1ff4 19a8 fe00 58a8
000000e0: 1582 19a8 3c76 4ca8 4f0f 82a8 1110 2da8
000000f0: e91c 9aa7 be1a 08a8 8f0d 4aa7 cdd2 d128
00000100: bd05 d428 717f cc28 fec8 c628 ba50 c728
00000110: 320b c728 1947 c528 1fd9 cf28 f551 d028
00000120: 9042 27a9 996e 20a9 7255 1da9 d591 28a9
00000130: 6fae 1ca9 ecc3 12a9 ff09 2da9 d825 1aa9
00000140: ca7c 0ca9 f122 273c 96eb 3e3c d13d 2c3b
00000150: 9057 273c 7ac9 593c cdfb 1b3c 2b9e 723b
00000160: 994d 2d3c 9aaa f53b 4175 953c 616b 9c3c
00000170: cfa2 653c 2d57 9d3c 32fe 963c bd1a 853c
00000180: 3442 843c 8e56 903c e3b7 5d3c 011f 433e
00000190: 8f3a 4f3e b710 6c3e abca 253e f4c6 303e
000001a0: bd9c 503e 31a1 1a3e 7439 233e 7a5f 413e
000001b0: 054d bfbc 3cec 31bc c253 d03b 63e1 efbc
000001c0: 7310 e6bc ecfc fcbb bced 0ebd 084f ffbc
000001d0: 1c1b afbc 1d4b a53e fb4e 983e a762 963e
000001e0: 3c19 a63e 5293 963e 651b 963e 02f1 ae3e
000001f0: e363 a13e b281 9f3e 7ee5 69bc bedb bbbc
00000200: d262 0bbd bfda c7bb 21f8 8dbc e568 aebc
00000210: 9e2b a7bb 9ece eebb c22a 3fbc df89 2cbc
00000220: bf24 07bc 43c3 c2bc b261 dabb a7e8 8bbb
00000230: 60c9 37bc f502 3ebc 77b5 fdba 7119 1fbc
00000240: d068 0fbc 82e9 3abc 14ca bebc 709c b8bb
00000250: e1c9 3cbc 3799 87bc 8e7d 03bc 7c18 07bc
00000260: 08d6 87bc b366 803e 90e6 853e 4f9d 933e
00000270: 9652 673e 6cc7 6f3e d313 883e 6875 5d3e
00000280: 5901 653e 80e6 803e 3577 ae3b 7b1b bc3c
00000290: 83f1 963b 36dc 443c 23b1 e23c 4c56 9d3c
000002a0: 135c f93a 63b2 3a3c 2987 393b 362b 82bc
000002b0: 7763 4abc 3bad 88bc 6798 f1bb a617 cdbb
000002c0: 5102 4ebb 66c3 b5bc 8f8f 49bc 9e23 1ebc
000002d0: 5dba a9bb 23ac 8bbc a6c0 15bb a202 d7bb
000002e0: cefb d5bc d1c5 a3bc 1cea e53b 73b1 17bb
000002f0: 7281 bfbb 9851 4bbc 30f3 b4bc 13d5 08bd
00000300: bcca 4abc 07b4 95bc 8a45 94bc 5936 88bc
00000310: fb12 54bc b7d9 46bc 3a0b 54bd e1c2 59bd
00000320: f14a 34bd d942 65bd 15d4 67bd b71d 20bd
00000330: f1fc 57bd 3759 44bd cacb 02bd 99f2 bbbd
00000340: e72e 9cbd ea25 9abd ac4f c8bd e2e3 9fbd
00000350: 6196 8cbd dcf1 f6bd 9630 c2bd d554 acbd
00000360: c3cc edbd 609f ecbd e15a e8bd 0e6d 08be
00000370: 7bf6 08be d90e fbbd c48b 0ebe e7b6 10be
00000380: 7d12 04be cd10 3f3b 2313 503c 6f2d af3c
00000390: ac74 6bbc 58ec f3bb 3752 263c bc1d a4bc
000003a0: 23c1 5fbc 81f2 4c3b b18a 0a3d 9d61 3d3d
000003b0: aa73 3d3d 07a1 7a3c fde4 db3c a057 153d
000003c0: 9a49 efba eca2 1e3c b836 ac3c c99e 3b3c
000003d0: a700 fc3b 7dca 933c a8b3 593b 6b7c f0ba
000003e0: ef41 013c dc78 1e3c 6657 b33b 96ba 623c
000003f0: 24dd d03d 775a c83d a804 b53d abdc e53d
-0.00048904424 -0.0005117551 -0.00046523317 -0.0005144803 -0.0005296044 -0.00047233872 -0.00046874644 -0.00047413114
-0.00042506534 -0.00022466129 -0.0002549795 -0.00021774076 -0.00022627713 -0.00024560597 -0.00019773837 -0.00013323363
-0.00013958673 -9.8767276e-05 3.6865273e-05 -2.000679e-06 8.124853e-05 2.4600951e-05 -4.964874e-06 8.9749024e-05
8.045495e-05 7.108525e-05 0.00014896737 0.09805879 0.10816744 0.10763432 0.09669007 0.10651254
0.10659192 0.08963971 0.097740546 0.097601436 0.014974251 0.017547486 0.01864009 0.011766139
0.015965365 0.017268144 0.010365955 0.012478815 0.014962525 -0.11906449 -0.10832975 -0.11852222
-0.11445286 -0.10111798 -0.110657044 -0.12497664 -0.11258678 -0.11998429 -8.5461415e-15 -1.1990624e-14
-8.521413e-15 -1.1349913e-14 -1.4439538e-14 -9.606913e-15 -4.277493e-15 -7.555315e-15 -2.8040482e-15 2.3295081e-14
2.3539217e-14 2.2703819e-14 2.2069582e-14 2.2128448e-14 2.2098293e-14 2.1902227e-14 2.3075778e-14 2.3128182e-14
-3.7139183e-14 -3.5623065e-14 -3.4935115e-14 -3.7429983e-14 -3.4790255e-14 -3.2588447e-14 -3.8422387e-14 -3.4227693e-14
-3.1194482e-14 0.010201202 0.011652848 0.0026281963 0.010213748 0.013292665 0.009520483 0.0037020545
0.010577583 0.007497144 0.018244388 0.019094171 0.014015867 0.019206608 0.018431757 0.016248101
0.01614485 0.017619397 0.013532612 0.19054796 0.20237182 0.23053251 0.16190593 0.17263395
0.20372291 0.15100552 0.15939885 0.18884078 -0.023352155 -0.010859545 0.006357641 -0.029282277
-0.028084015 -0.0077205803 -0.03489469 -0.031165615 -0.021375231 0.3228387 0.29747757 0.2937214
0.32441127 0.2940927 0.29317775 0.3416825 0.3152152 0.31153637 -0.014275907 -0.02293193
-0.03402979 -0.0060990746 -0.017330231 -0.021290252 -0.005101635 -0.0072878143 -0.011667909 -0.010530918
-0.008248507 -0.023774749 -0.006664478 -0.0042696777 -0.011217445 -0.011597385 -0.0019356449 -0.009710656
-0.008753017 -0.011408212 -0.023289718 -0.005633883 -0.011522741 -0.01655255 -0.00802554 -0.008245584
-0.01658155 0.25078353 0.26152468 0.28830954 0.22590098 0.23415917 0.26577625 0.21626818
0.22363795 0.25175858 0.005324269 0.022962322 0.004606427 0.012015393 0.027672356 0.019206189
0.0019024633 0.01139507 0.0028309321 -0.015889745 -0.012352816 -0.016684165 -0.007372904 -0.0062589226
-0.0031434486 -0.0221879 -0.012302293 -0.0096520465 -0.005179687 -0.017049855 -0.0022850423 -0.006561593
-0.026121046 -0.019991787 0.0070164334 -0.002314654 -0.0058442885 -0.01240959 -0.022088617 -0.03340633
-0.012377437 -0.01827432 -0.018099565 -0.016627477 -0.012943978 -0.012136868 -0.05176852 -0.053164367
-0.044016782 -0.055971954 -0.05659874 -0.03909084 -0.052731458 -0.047936644 -0.03193263 -0.09177131
-0.076261334 -0.07526763 -0.09780821 -0.07807137 -0.0686462 -0.1205785 -0.09481923 -0.08414618
-0.11611321 -0.11553836 -0.11345459 -0.13322851 -0.13375275 -0.12258691 -0.13920504 -0.14132272
-0.12897678 0.00291543 0.012699875 0.02138397 -0.014371078 -0.007443946 0.0101514375 -0.02003371
-0.013656887 0.0031272473 0.033823673 0.04623567 0.046252884 0.015297181 0.026842589 0.03646052
-0.0018256188 0.009682398 0.021022186 0.011451432 0.0076905075 0.01804089 0.0033218656 -0.0018347626
0.007889255 0.00967237 0.005473065 0.013838431 0.10198429 0.0978288 0.08838779 0.1122373

module.conv1.bias f4 [16]
00000000: 8f57 95bb dbc3 313d b083 f4aa 3a09 f6bc
00000010: 4996 ddbd 514f 023d e6d4 853f 962c 383e
00000020: 5829 c73d 636f ad3d 6e86 123f 30a3 6a3c
00000030: 0b64 053e e1ee 0b3d 32ae 8fba e09d 3aba
-0.004557557 0.043399673 -4.3434483e-13 -0.030033696 -0.1081968 0.031813923 1.0455596 0.17985758
0.097246826 0.08468511 0.57236373 0.0143211335 0.13026445 0.03416336 -0.0010961948 -0.0007118862

module.conv2.weight f4 [32, 16, 3, 3]
00000000: ef25 68b9 5f31 62b9 bfad 5eb9 7bdc 61b9
00000010: fce9 60b9 5ff5 65b9 be2a 86b9 36aa 7fb9
00000020: 9617 80b9 0416 5e3c 7387 11bd 09df 58bd
00000030: 17de 1c3c f878 edbc bc90 03bd 7561 073d
00000040: c218 d539 ef54 4f3b 9bc7 a9a6 3376 2727
00000050: da72 c927 4161 a5a7 18c1 e6a6 7bf9 16a7
00000060: 71eb bba7 55b3 ada6 cc21 4ba7 40c2 0abc
00000070: 7aed b83c 694c 453d ba1f 1abd b1b0 81bc
00000080: 5ef1 453c ddc3 55bd 48ff f7bc 1a39 bebb
00000090: 8643 56bd ff6b 17bc 369a d73b b2d6 96bc
000000a0: 0671 ac3c a7aa 603c 3ae8 28bc 1426 f13c
000000b0: 30cb ed3b a7cf c7ba f476 1f3d ef92 a13d
000000c0: 9c3f 56bd 4fcb adbc b0a7 b63c 4455 95bd
000000d0: c531 2fbd c3c7 c7ba b0e1 853d ac1a 1d3d
000000e0: c918 3a3d 2e13 3f3d 199f b13c 742c 043d
000000f0: a4c0 803d 4556 213d 2a48 533d e2ea 1a3d
00000100: c3c1 9e3c 8216 283d e446 053a 5ee5 87bc
00000110: f55c da3b bc5a 493b 869f 42bc c047 7a3c
00000120: 9e04 91bc 0254 45bc f643 473c 09b3 a6bc
00000130: 7ca9 d7bc 2e52 52bc 21aa 2dbc f235 74bc
00000140: 3fce 3fbc 7d1e 633b d372 b2bb 6538 8d3b
00000150: 4891 e539 e20a d5bb 48ca 85ba 9257 923c
00000160: 48fa 3c3c 41f2 563c 9101 183d 118e 623d
00000170: 292f bd3d a843 18ba 79bb 483c 90c6 403d
00000180: 8a8e a8bb 15df 0d3b 1ff5 0d3d e7b9 813c
00000190: b303 36bb eed1 d03b 86f6 48bb 83be 7ebc
000001a0: 11cd 24bb 1bd0 913b 9539 16bb 14d3 773c
000001b0: 186e 183c 4ec3 583c 3f43 be3c f3ac b2bb
000001c0: d340 e0ba 2aeb 1b3c d45c 10bc 90d2 7fbb
000001d0: a8d2 013c b564 31bc c6af ccbb 29c7 3ebc
000001e0: f1d1 3f3c bbb2 833c 8316 983b 68c3 8d3c
000001f0: 845d cc3c d464 243c e8f7 0dbd 4f97 dd3a
00000200: 6b66 bb3c 8180 0dbd 2ef5 d4bb b35e 2f3b
00000210: bf98 36bd 27c3 a9bc 0cfb 9dbc a141 1f3d
00000220: 773a 0bbe f7dd 6abe 5907 c13d 9194 31bd
00000230: be25 e9bd 79e6 2d3e 728e 893d 59a7 af3c
00000240: b061 f537 90e1 7a38 0b07 9d38 ca2f 2db7
00000250: 146c 8038 b673 c438 93b8 1b38 c553 8738
00000260: d723 e638 4c0e 8dbc b250 ff3b b769 183d
00000270: f3c8 29bc 8d96 103c 2446 e13c 55b8 51bd
00000280: 9942 d2bc d7a5 05bc 4dea 4627 60c8 15a7
00000290: 45a2 cca6 c1ac e027 6ad7 7727 8ed3 fc26
000002a0: f2d6 0428 0134 9327 ecac 3627 f9fb a6bb
000002b0: 8f9f ecbc 06c0 74bd 73a2 243c 6873 7bbb
000002c0: a2ee c9bc cfc4 f43b 8afd 673c 4585 6b3b
000002d0: 786e 563c db55 643c 1f8c 673c 6f8d 8fbb
000002e0: bc76 6bbb 57a0 d03a 248b 383c 02c4 ab3b
000002f0: ba6f b73b 5b10 373c 19f6 c9bc e21d 80bd
00000300: afb0 d43c 1978 673b 5584 96bc 5803 cd3c
00000310: 6ece f43c 1c79 b93c 6434 a53c 9075 043d
00000320: aae6 363d 29fa 903c 2926 eb3c 2fb0 233d
00000330: 5dbf a2bb c492 c13b 66fa 883c c9e4 923c
00000340: 9649 e7bb d851 fdba 2049 c53c 4e7f 97bb
00000350: cc70 c2bb 4d66 343d 9e49 553c 897e 003c
00000360: 87e5 10bc a93b ebbc aa9f 8abc 0d40 f9bc
00000370: 59d0 49bd 0852 e3bc 03ac 85bb 05cc e6bc
00000380: f65d fdbb 4cc5 963b 2a21 853c a6d6 243d
00000390: 7048 ccb8 efdf 883b a89d a93c 21ee 5bbb
000003a0: 799d 77bb 09bf 8b3b 4dda 313d 4823 9e3a
000003b0: f64b 1ebc e9b9 3b3d 2d94 843b a2d2 7bbb
000003c0: 2244 aa3d ee55 263d d3f2 033d 1d93 b73a
000003d0: 19c3 3f3a 379d 0a3c 9c6b 8f3a c503 813b
000003e0: 3d76 7b3c a9a7 06bc 994f f8ba 9157 7e3c
000003f0: ada5 043c a014 64ba 4f6a 07bc dcf3 293c
-0.00022139376 -0.00021571432 -0.00021236295 -0.00021539807 -0.0002144947 -0.0002193055 -0.00025590317 -0.00024382104
-0.00024431635 0.013555054 -0.035529565 -0.052947078 0.009574435 -0.028988346 -0.03212045 0.033051927
0.00040644972 0.0031636318 -1.1780834e-15 2.3239982e-15 5.591323e-15 -4.5902143e-15 -1.6011794e-15 -2.0951925e-15
-5.2158192e-15 -1.2052894e-15 -2.819023e-15 -0.008469164 0.022574175 0.048168574 -0.037627913 -0.015831323
0.012081472 -0.052188743 -0.030273095 -0.005805147 -0.05231049 -0.009242057 0.0065796627 -0.018412922
0.021049988 0.013712562 -0.010309273 0.029437102 0.007256888 -0.001524438 0.038931802 0.078893535
-0.052306756 -0.02121511 0.022296757 -0.07291654 -0.042772073 -0.0015242029 0.06537187 0.038355514
0.045433793 0.04664915 0.021682309 0.032268956 0.06286743 0.039388914 0.051582493 0.037821658
0.019379502 0.04103709 0.0005084111 -0.016588863 0.0066639134 0.0030724248 -0.011878854 0.015275896
-0.017702397 -0.012043955 0.012162199 -0.020349042 -0.026325934 -0.012836976 -0.010599644 -0.01490544
-0.011706888 0.0034655624 -0.005445817 0.0043097013 0.00043786527 -0.0065015415 -0.0010207379 0.017864022
0.011534281 0.013119281 0.03711087 0.055311266 0.09237511 -0.00058084214 0.012251728 0.047064364
-0.005143945 0.002164786 0.034657594 0.015835715 -0.00277732 0.006372682 -0.0030664518 -0.015548351
-0.0025146643 0.004449857 -0.0022922505 0.015126009 0.009303592 0.013230158 0.023225425 -0.005452746
-0.0017109163 0.009516517 -0.008811194 -0.0039035417 0.0079237595 -0.010827233 -0.0062465398 -0.011644163
0.011707769 0.016076436 0.0046413555 0.017305091 0.024946935 0.010033805 -0.03466025 0.0016906055
0.022875985 -0.03454638 -0.0064989543 0.0026759326 -0.044579264 -0.020722939 -0.019284748 0.038880948
-0.13596521 -0.22936235 0.094252296 -0.043354575 -0.11384152 0.1698245 0.067166224 0.021442102
2.9251765e-05 5.9814716e-05 7.487655e-05 -1.032273e-05 6.123647e-05 9.367561e-05 3.7126778e-05 6.452905e-05
0.0001097393 -0.017218731 0.007791602 0.037210193 -0.010362851 0.008824957 0.027499266 -0.051201183
-0.025666522 -0.008157215 2.7605035e-15 -2.0786527e-15 -1.4199327e-15 6.235979e-15 3.4394912e-15 1.7543355e-15
7.374081e-15 4.085708e-15 2.5351315e-15 -0.0050959555 -0.028884677 -0.05975344 0.010048497 -0.0038368348
-0.024649922 0.0074697505 0.0141595695 0.003593759 0.013087861 0.013936485 0.014132529 -0.004380874
-0.0035928925 0.0015916926 0.011263642 0.005241872 0.0055980356 0.011173333 -0.024653481 -0.062557
0.025963156 0.0035319387 -0.018373648 0.025026008 0.02988359 0.022640757 0.020166583 0.03233868
0.044653572 0.01769741 0.02870472 0.039962944 -0.00496666 0.0059073884 0.016720962 0.017931359
-0.0070583327 -0.001932676 0.02408272 -0.00462333 -0.0059338566 0.044042874 0.01301804 0.007842668
-0.008843786 -0.028714972 -0.016921837 -0.03042605 -0.04927096 -0.027749076 -0.0040793433 -0.028173456
-0.0077321483 0.0046011563 0.016251165 0.040243767 -9.7409706e-05 0.0041770856 0.02070506 -0.0033558684
-0.003778307 0.0042647165 0.04342108 0.0012064958 -0.009661665 0.045831595 0.0040459842 -0.0038425107
0.083137766 0.040609293 0.032213997 0.0014005635 0.00073151436 0.0084603345 0.0010942104 0.003937217
0.015348014 -0.008218684 -0.001894462 0.015523807 0.008096141 -0.0008700583 -0.008265092 0.010373082

module.conv2.bias f4 [32]
00000000: 9017 a13c ec4c b93c 3d54 8dbd f73f a8ba
00000010: cd9a 263d a9f2 0b3d 685f 2d3c f704 123d
00000020: ff7b 05bc 9206 e13a 5da3 2b3c be34 36bd
00000030: 5c24 693b e6a2 97bb 92bc bf3c 6607 2f3e
00000040: 6389 193e b774 5c3d e563 98bc 7963 ce3b
00000050: d63c 51bd 1439 db3c da98 143c ebe0 9b3c
00000060: 95a6 fb3c cd0f 373b 8f16 ee3c 865f 043d
00000070: 4589 ec3c 9745 2c3d 3af4 c338 18fc 313e
0.019664556 0.022619687 -0.06900833 -0.0012836446 0.040674973 0.034166966 0.010581829 0.035649266
-0.008147239 0.0017168096 0.010475961 -0.044483893 0.003557465 -0.0046275733 0.023405347 0.17092666
0.14993815 0.053822245 -0.01860232 0.006298479 -0.05108341 0.026760615 0.009069646 0.019028148
0.030719081 0.0027933002 0.029063491 0.03231766 0.028874049 0.042058554 9.343815e-05 0.17381322

module.conv3.weight f4 [32, 32, 3, 3]
00000000: 1127 a13c 3d82 16bb 37a9 e53b 2cc3 d03c
00000010: aec5 d83a 653f 20bc aff0 393d b850 f63c
00000020: 9806 aa3c 73ed 073b f025 1a3c a3d0 253d
00000030: 6c63 c5bc eb76 04bd e59a 033c 3a45 9bbc
00000040: e7b0 77bc d102 f43a 07a7 07bc c4bc f3bb
00000050: a4c9 813b d45f 77bc 4d8c 83bc a6c4 77bb
00000060: 9884 07bc c7db 83bc 45d7 05bc 3197 b03a
00000070: 8990 8bbb 9bd1 4dbb 4c54 9ebc c50e 0ebc
00000080: 37b8 71ba 2b80 32bc 273a 13ba 4d66 8dba
00000090: 288f c13d dfae 7e3d e4c6 253d eb3d 423d
000000a0: d785 dbbc 0877 ecbc f834 1a3d 5821 0fbd
000000b0: 080e eabc f509 ccbc a02d ddba f869 a6bc
000000c0: 095c 8cbc 895c 6c3c f63b 92bb 8d82 2ebd
000000d0: d955 85bc bb38 d3bc 2b4f d8bc efae fc3c
000000e0: e51f 21b9 03e5 c3bc ce56 493d 8ebf eb3c
000000f0: 34c7 22bd e17e a5bc e872 e8bc 39aa b0ba
00000100: 203c f03c a3cd 143d 1aac c9bc 093d 4fbb
00000110: 10e1 8b3c 33ff 8bbb 29ca 0fbc 17b9 ddb9
00000120: 556b 9d3c 76ed 67bb 79b4 d0bc 96e1 a53c
00000130: b9fa 913b ead0 c6bb 9c05 ee3c 19db c23c
00000140: a71d 8a3c e917 7abc cf43 8ebc 99d0 ffbc
00000150: 2a89 9fbc 5b43 47bc 7d11 98bc 28b8 b4bc
00000160: 274a a2bc 065e 8fbc 95f0 a7bc 2378 a73a
00000170: 403d 31bc f2bb d0bb dd8e 9e3b 49de aebb
00000180: 4303 043c d628 343a 17f4 83bc bdf3 28bc
00000190: 208e 2cbc 51a6 41bb e968 e7bc e0ef 99bc
000001a0: 4bb4 2bbc 44af 09bd a11f d9bc b4a5 43bc
000001b0: 5904 12bc 3665 8abc 237a 26bc f5ed cdba
000001c0: d9ae 67bc a9fa c5bb ed20 6abc 3505 c0bc
000001d0: b33c c8bb b439 bfbc f101 72bc b3ed 09bd
000001e0: 5d67 cebc be4e 0fbc f64d b5bc 157d 06bd
000001f0: 88a8 cfbc be69 f2bc c59c 073c 5b09 2a3d
00000200: c505 3c3d de17 0fb9 76ef aa3c 7520 273d
00000210: e8d1 05bb 6a0e 063b 8672 6b3c b15d 0abd
00000220: 2bf4 b0bc 3fc5 1fbc ed14 9abc c2d9 e8bc
00000230: 214d cfbc dd6d 22bc e4a0 a3bc 775d e6bc
00000240: 480d 81ba 0946 a5bc 5c5e f6bc ab6e bebb
00000250: b355 babc 143f 65bc e37e 44bc 5256 8dbc
00000260: 3c4a c23a d149 c6bb 9629 1bbc 2328 8ebc
00000270: 24eb bf3b a0fa 603b 82f9 6ebb 4392 353c
00000280: bb7a e33b f93e 83ba 289e bfbc 1f9c 5bbc
00000290: 3338 e7bc 5e77 11bb 8fa0 2c3c 39b3 4cbb
000002a0: c705 e3bc b580 8abb 07b6 96bc 8bfc 37bc
000002b0: e976 9bbc ffbc 9cbb 7ce8 7cbc fea9 13bd
000002c0: 7eae dabc ac30 6fbc 0fe4 a8bc 2559 9fbc
000002d0: ac20 593b 0963 4a3c 34e0 e13b 334c 5c3b
000002e0: a742 ab3c cb94 9a3c 8c05 56bc 0378 bd3b
000002f0: 79fd f53b d4fb e2bc 7d5c 8cbc c38a 233d
00000300: df48 02bd 99a8 d4bc 30eb 453d a175 143d
00000310: d7fa 2f3d 3436 af3d 255d 833b 3fd0 00bd
00000320: ce2e 41bd 2fff 953c 8dc2 b1bc b0ed 0abd
00000330: 9755 093d 6771 8d3c 3641 aa3b 1e55 29bd
00000340: fdec c1bc 9db0 e7bc 2a90 4cbd 36dd 6bbc
00000350: 3ce1 c3bc 54f8 87bd c59d 56bd fa62 2dbd
00000360: 9f30 68bd e2df 1cbd f4c5 3cbd 873b 3abd
00000370: 27c3 b6bc 0d1c 1fbd ef8d 7cbd dfb9 3dbd
00000380: 2ce9 69bd a043 0d3c c6d5 243b 1ff5 a5bc
00000390: 01ef 393c 0316 873b 9a1f 8bbb ad13 e93b
000003a0: 7a14 573b 3586 003c fdcf 743a 927e 62b9
000003b0: d6a3 b738 d42a d4bb ba69 2138 1ed5 5b3b
000003c0: 9aa3 a33a f359 363c c229 673b 0004 75bd
000003d0: 8d12 4cbd cc48 9dbd 0405 3ebd b663 c3bc
000003e0: f079 48bd 0514 88bd a577 43bd 8c2e 81bd
000003f0: 2649 e43c 2bf4 0a3c c44f 5b3d 3661 1b3b
0.019671949 -0.0022965812 0.0070086974 0.02548369 0.0016538405 -0.009780739 0.04539555 0.030067787
0.020755097 0.0020740896 0.009408459 0.040482175 -0.02409526 -0.03233997 0.008032535 -0.018953908
-0.01511786 0.0018616562 -0.0082795685 -0.007438274 0.003960805 -0.015098531 -0.016058112 -0.003780642
-0.008271359 -0.016096009 -0.008169 0.0013472793 -0.0042591733 -0.0031405452 -0.019327305 -0.0086705135
-0.00092208706 -0.010894815 -0.00056162704 -0.0010787934 0.09451133 0.06217849 0.04047288 0.04742233
-0.026797218 -0.028865352 0.03764817 -0.03494391 -0.028571144 -0.024907092 -0.0016874559 -0.020314202
-0.01713373 0.014426359 -0.0044627143 -0.04260497 -0.016276287 -0.025783887 -0.026404938 0.030845134
-0.00015366038 -0.023912912 0.04915505 0.028777864 -0.039740756 -0.020202102 -0.028375104 -0.0013478465
0.029325545 0.036328923 -0.024618197 -0.0031622073 0.017075092 -0.0042723655 -0.008776226 -0.00042290307
0.019216219 -0.003538934 -0.025476681 0.02024917 0.0044549373 -0.006067385 0.02905541 0.023786115
0.016859842 -0.01526449 -0.017366318 -0.031227397 -0.019474585 -0.012162055 -0.018563027 -0.022060469
-0.01981075 -0.017500889 -0.02050046 0.0012776892 -0.010817826 -0.006370061 0.004838808 -0.005336557
0.008057418 0.000687254 -0.016107602 -0.010312018 -0.010531932 -0.0029548595 -0.028248267 -0.01879114
-0.010479997 -0.033614412 -0.02650434 -0.011941362 -0.008912169 -0.016893964 -0.010160956 -0.0015711176
-0.014140808 -0.006041844 -0.014290077 -0.023439983 -0.0061107515 -0.023342945 -0.014770971 -0.033673953
-0.025195772 -0.008746801 -0.022131901 -0.03283413 -0.025348917 -0.029591437 0.008277123 0.04151283
0.04590394 -0.00013646434 0.020866137 0.040802438 -0.0020419303 0.0020455369 0.014370566 -0.033780757
-0.021600803 -0.009751617 -0.018808806 -0.028424148 -0.025305333 -0.009913889 -0.01997418 -0.02812074
-0.0009845877 -0.020174997 -0.03007429 -0.0058115325 -0.022745943 -0.01399209 -0.011993143 -0.017253075
0.0014823149 -0.00605128 -0.009470364 -0.017353123 0.0058568884 0.0034329072 -0.0036464636 0.011082235
0.006942121 -0.0010013274 -0.023390844 -0.013403921 -0.02822504 -0.0022196393 0.010536327 -0.0031234755
-0.027712716 -0.004226769 -0.018397344 -0.0112296445 -0.0189776 -0.0047832723 -0.015436288 -0.03605079
-0.026694532 -0.014599007 -0.02061656 -0.019451687 0.0033131046 0.012352713 0.006893182 0.0033614754
0.020905806 0.018869778 -0.013062846 0.005782129 0.007507023 -0.027707972 -0.017133946 0.039927255
-0.031807777 -0.0259593 0.048319995 0.036244992 0.04296383 0.0855526 0.0040089064 -0.0314486
-0.047163777 0.018310158 -0.021699214 -0.033918083 0.03352889 0.017265989 0.005195762 -0.04134094
-0.023672575 -0.028282458 -0.049942173 -0.0143960025 -0.023911111 -0.06639162 -0.052396554 -0.04233072
-0.056686994 -0.03829945 -0.04608722 -0.045466926 -0.022309853 -0.03884511 -0.061658796 -0.04631984
-0.057107136 0.00862208 0.0025151833 -0.020258484 0.011348487 0.004122497 -0.0042457106 0.0071129412
0.0032818601 0.007844497 0.0009338854 -0.0002160019 8.756637e-05 -0.006474832 3.8483857e-05 0.0033543776
0.001248467 0.011129844 0.0035272692 -0.059818268 -0.04982238 -0.076799005 -0.046391502 -0.023851257
-0.048944414 -0.066444434 -0.047721524 -0.06307706 0.027866911 0.008481066 0.053542867 0.0023709065

module.conv3.bias f4 [32]
00000000: 7ce9 71bc 24b9 b2bd 7917 6cbd 499b d23c
00000010: 066d bf3c 6b2e 3a3d 304b 003c 54c9 b03c
00000020: 0c77 773a 0047 883d 2bf2 fabc fd0a fc3b
00000030: 146f a23c f2b0 67bc bcab 08bc 7843 50bc
00000040: 9e85 043d 42ae f9bc d9b1 5f3d 4d90 88bb
00000050: de1a 74bc cd99 a83c 9320 c1bb bd6a 453d
00000060: 6cf8 7e3d 6fba 2d3d 8f45 0f3d 40dd a73c
00000070: b447 be3c 6815 a6bc 1203 79bc 14e1 623c
-0.01476514 -0.08726719 -0.057639573 0.025708811 0.023367416 0.045454424 0.007830426 0.021580376
0.00094400416 0.06654167 -0.030633053 0.0076917396 0.019828357 -0.014141308 -0.008341726 -0.012711398
0.03235399 -0.0304786 0.054612968 -0.0041675926 -0.014898984 0.02058115 -0.0058937757 0.048197497
0.062248632 0.042414125 0.034978446 0.020491242 0.02322755 -0.02027388 -0.015198486 0.013847608

module.conv4.weight f4 [32, 32, 3, 3]
00000000: 3ef8 c83c dcc6 2b3d 0972 9f3c 19f5 013d
00000010: 782d 8a3d 0ece 293d b6e4 e73c 4d11 ed3c
00000020: d158 b93c f509 b3bc c993 9fba 1d79 c53b
00000030: 7cf4 e6bc 7784 11bc f029 0dbc fa09 a8bc
00000040: df64 3ebc 243e 73bc d198 04bd f409 b7bb
00000050: fb60 983a 3444 f5bc e651 a7bc 4ed6 02bc
00000060: 59a9 65bd ad16 a7bc cfa5 35bc 1e63 85bd
00000070: 32f4 9dbd a9cb 83bd a4fa cfbc 6aca 71bd
00000080: 84d1 87bd ec27 24bd 6861 e2bc 9c37 78bd
00000090: e3fd a9bc 3260 dcbc 15b7 33bd cf4b d8bb
000000a0: 8ac8 efbc 1ae7 04bd bfb5 fe3c 3511 553c
000000b0: 33d7 39bb a9f2 c2bc 24dc 9ebc 6163 39bc
000000c0: 716d eabc cd80 d9bc 94f3 63bc 9cb2 04bc
000000d0: 99c1 18bd 8e2f 0bbd c1e9 fa3c 91df bf3c
000000e0: 0d95 433d 9a5c c33c 61de 493c e8e2 a63c
000000f0: a1f8 113d be52 b53c be0d b63c d992 cb3b
00000100: 21c1 173c 9a3c 0b3c e358 b13c b46d 133d
00000110: e7d2 193d 7a92 be3c 30c1 993c 75e7 813c
00000120: 14d8 243b 47ef 213d 6217 113d a05c c33c
00000130: 1d65 1e3d 43aa 3a3d 9925 623c 08d7 ea3c
00000140: 9b40 6f3b 68a2 1439 177e c93b de0e d2bb
00000150: a0f5 0b3c 7f7f f73c d2f4 123c 16df a3bc
00000160: 6323 403c c75b 6ebb 4488 3cbd 0277 6ebc
00000170: 7046 70bd dc12 04bd 04b0 703c dc5f 9abb
00000180: 8dab 74bd d40a 94bc 353a 26bd 677c 75bb
00000190: a750 8dbb 5cac 563b 200a 8c3c cefb c138
000001a0: 1c81 e13b ce5b 693c 268f 953c c5d4 333b
000001b0: 7dfe 20bc 31ab 9abc dd8f dfbc 0422 a8bc
000001c0: d9dd 97bc 43d8 e0bc d132 4bbc 8bf5 87bc
000001d0: 533b 1abc 4b0c 883b 447f adbc aada 38bc
000001e0: 694d 94bc ca2e cebc 17d3 6cbc 4917 c3bb
000001f0: ae89 76bc c067 243c e191 71bc 93b5 c3bc
00000200: 434d b5bc e9e3 cfbc 7b8b 12bd 5b62 cfbc
00000210: eb85 8abc 206c 91bc 681e 48bc acea c23c
00000220: 73ae a23c 9b61 e93c 2103 d93c 23fa b23c
00000230: d940 e73c 7574 8d3c fd01 953c 1af0 243c
00000240: e8e2 683c a8ee dbba 5cc0 83bc 7a23 8c3b
00000250: 02f9 973b 6d1d ed3a c359 f33c ec78 563b
00000260: 75f9 c13b 4e0b 1abc ad71 25bc 04d6 463c
00000270: 7b67 eabc 6f1e d9bc 1c4f 48bc 38b0 26bc
00000280: 05c8 e7bc caec 81bc 01fb fd3b 20ec ee3c
00000290: baba 5e3a e0e9 0c3c 04e3 003d 71cc e13c
000002a0: b7dd 6bbc 1310 5b3b 4c03 d23b 9c32 f83c
000002b0: 1cdd f23b e83f 903c 7f00 d23c 718f 443b
000002c0: ae33 fe3b f0fd 3d3d 6679 ac3c 6372 f43c
000002d0: 8b97 113c 5359 c23c 12c1 993b 4426 bb3b
000002e0: ec9a df3c c75b 623c f96c b33b e9b7 1d3c
000002f0: 8e01 7a3a 1068 b33c c9e3 8a3b 0810 c7bb
00000300: f56e be3c f380 a23c ccbf ff3a e575 953c
00000310: 5462 ad3c e43f 2c3c 71d1 873c b681 febc
00000320: 7241 9dbc d662 963b 5098 3dbd df91 debc
00000330: dbc0 f2bc 5b29 99bd 0f01 8bbd 8837 15bd
00000340: e453 403b 66c1 b0bb 32b6 afbc 5353 983c
00000350: 460c a03b f561 c83b cfe4 2b3c 3cff 1f3c
00000360: 27ed c93c 5e41 6c3c fb0e 933c 2cd6 273c
00000370: 26f2 813c a06b 703c 50c2 ef3c ee98 003a
00000380: ad07 0d3b c1d8 97bb 9cef 76ba 92cf 5abc
00000390: ab44 243c c77c 393c 3524 1f3b 245b 883c
000003a0: 8e8b cf3b 6b72 0bbc 7385 e7bb 09a1 0739
000003b0: c1c7 03bd b215 653b 132c d93b 5e0f 83bc
000003c0: 713e c23c 615a b03c 7ed4 98bb f5ea 013d
000003d0: 457d 043c daf9 873b e1b0 e33c 8b46 9a3c
000003e0: d44f 553c da85 0c3d 12fe 193d d513 1c3d
000003f0: 8914 893c 996a f93b 467f 583c 4d1e c13c
0.024532434 0.041937694 0.019463556 0.031727884 0.06746954 0.041456275 0.0283073 0.028938914
0.022625359 -0.021855334 -0.0012174781 0.0060264007 -0.028192751 -0.00888168 -0.008615956 -0.02051257
-0.011620729 -0.014846358 -0.0323723 -0.0055859033 0.0011625582 -0.029939748 -0.020424794 -0.0079856645
-0.056069706 -0.020396555 -0.011086895 -0.06513046 -0.07712592 -0.064353295 -0.02538807 -0.059030928
-0.06631759 -0.040077135 -0.027634338 -0.06059991 -0.020750945 -0.026901338 -0.043875773 -0.006600834
-0.02927043 -0.032446958 0.031092523 0.013004591 -0.0028357028 -0.02379735 -0.01939208 -0.011315198
-0.028616639 -0.026550675 -0.013913054 -0.008099224 -0.037294004 -0.0339809 0.03062904 0.023422034
0.047749568 0.023847867 0.012321086 0.02037187 0.0356375 0.022134181 0.02222335 0.006212574
0.009262354 0.008498335 0.02164883 0.035993293 0.037554648 0.023263205 0.018768877 0.015857438
0.0025153207 0.039534833 0.03542269 0.023847878 0.038670648 0.04557253 0.013802909 0.028666988
0.0036507014 0.00014174881 0.0061490643 -0.0064104637 0.008542448 0.030212162 0.0089695025 -0.020003837
0.011727187 -0.0036370622 -0.04602839 -0.014554741 -0.058660924 -0.03224455 0.014690403 -0.0047111344
-0.059733916 -0.01807157 -0.040582854 -0.0037458183 -0.004312593 0.0032756543 0.017094672 9.2498594e-05
0.006881846 0.014243079 0.018256735 0.0027440053 -0.0098263 -0.018880459 -0.027290279 -0.020524032
-0.018538402 -0.027446872 -0.012402252 -0.016596576 -0.009413558 0.004151856 -0.021178849 -0.011282602
-0.018103318 -0.025168795 -0.014454625 -0.0059537035 -0.015047474 0.010034502 -0.014744253 -0.023890292
-0.022131568 -0.02537723 -0.03577755 -0.025315454 -0.01690956 -0.017751753 -0.012214281 0.02379354
0.019858574 0.028488925 0.02649075 0.02184779 0.028229164 0.017267445 0.018189425 0.01006701
0.014214255 -0.0016779499 -0.016082935 0.00427669 0.0046378383 0.0018090435 0.029705888 0.0032725884
0.00591963 -0.009402109 -0.010097903 0.012135986 -0.028613796 -0.02650377 -0.012225892 -0.01017385
-0.028293619 -0.01585998 0.0077508693 0.029165328 0.00084964524 0.008600682 0.0314665 0.027563306
-0.014396123 0.003342633 0.0064090844 0.03029757 0.007411612 0.017608598 0.025635002 0.0029992724
0.0077576255 0.04638475 0.021053981 0.0298397 0.008886228 0.023724234 0.004692205 0.0057113487
0.027295552 0.013815827 0.005475637 0.009626367 0.0009536975 0.021900207 0.00423858 -0.006074909
0.023246268 0.019836878 0.0019512116 0.018244693 0.02116505 0.01051328 0.016579362 -0.03106771
-0.019196246 0.004589419 -0.046287835 -0.027169166 -0.029632976 -0.07478591 -0.06787311 -0.03642991
0.0029346878 -0.0053941486 -0.021449182 0.01859442 0.0048842756 0.006115193 0.010491564 0.009765442
0.024649216 0.014419882 0.01795148 0.010243934 0.015862536 0.014674097 0.02926746 0.0004905601
0.0021519468 -0.0046339934 -0.000941986 -0.013355153 0.010026137 0.011321253 0.0024283056 0.016645022
0.006333775 -0.008511166 -0.007065469 0.00012934594 -0.032172922 0.0034955558 0.0066275685 -0.015998539
0.023711415 0.021527471 -0.004664003 0.031718213 0.008086507 0.0041496577 0.027794303 0.018832466
0.013019521 0.03430734 0.037595816 0.03810485 0.016733425 0.0076115844 0.013213938 0.023574019

module.conv4.bias f4 [32]
00000000: 4de7 583d 4dad 263d 243f c73d 25c3 aaba
00000010: 4004 9cbb c891 923d 93d0 463c e170 eebb
00000020: a967 003d 8d71 553c 33db af3d 9ddd a13c
00000030: 1ce9 8a3d 228d b23d ec37 963d c717 ee3c
00000040: 2b0e 883d a702 ca3c 61a2 773d 31d8 9f3d
00000050: 7db8 de3d 22bc b33d 004b e43d 60ae a03d
00000060: e7e4 0f3c aaa1 4bbc 4818 b73c f169 8f3d
00000070: 110d 9c3d 8f50 b73d e51d a23d 986c 393e
0.05295496 0.040692616 0.0972884 -0.0013028128 -0.004761249 0.07156712 0.012134689 -0.00727664
0.031348858 0.013027561 0.08586731 0.019758994 0.06782743 0.08718325 0.07334885 0.029064072
0.06643327 0.024659468 0.06045759 0.07804907 0.10875032 0.08776118 0.111471176 0.078457594
0.008782602 -0.01242868 0.022350445 0.070026286 0.0761968 0.08950912 0.07915858 0.18107831

module.conv5.weight f4 [2, 32, 1, 1]
00000000: 9c34 8ebe b443 bcbe eecb a13e ca96 003e
00000010: c8dd 803e 1757 65be 50bb 2dbe f924 00be
00000020: 6661 b53c 1566 01bf ac30 b5be fab3 8c3e
00000030: 45b4 a2be e61b 56be 54c7 dd3e 3135 f53e
00000040: 0afc bb3d 9e8a 813e d464 b6bd 0ea0 a1be
00000050: 4f1d c53e 10d0 c23e b190 733e f32d b2be
00000060: 90fa b13c e385 3b3e 281d f33e a876 64be
00000070: cc88 a33d 9d6f 713e d2bc f3bd 7a4c d2be
00000080: fc16 b0be 9360 cb3d 9fac 87be 251e 113f
00000090: 9a43 8b3e 2541 903e 1c4f 81be e8b0 c1be
000000a0: 3ef0 9abe 5501 823e 681f 09be 0776 bbbd
000000b0: 9b45 5f3d 842c a1be 5c81 f9bb 0fc9 753d
000000c0: 3f2d b4be a508 0abf 792e 883e ea65 223e
000000d0: 8752 ddbd d58e b8bd 41e7 8c3e b419 b5be
000000e0: 499b a3be c33d 5cbe 22c3 fcbd 022a bdbe
000000f0: ce8f d23e 8a4a a13e 6b8f 023f 5538 dd3d
-0.27774513 -0.36770403 0.31600899 0.12557521 0.25169206 -0.22396503 -0.16965985 -0.12514104
0.02214117 -0.5054639 -0.35388696 0.2748106 -0.3177816 -0.2090908 0.43316138 0.47892144
0.09178932 0.2530107 -0.0890595 -0.31567425 0.38498923 0.38049364 0.23785664 -0.3480068
0.021725923 0.18312792 0.47483182 -0.22310889 0.07985076 0.23577733 -0.11901249 -0.41073972
-0.34392536 0.099305294 -0.26498887 0.5668662 0.27200013 0.281747 -0.25255668 -0.3783028
-0.30261415 0.2539164 -0.13390887 -0.09153371 0.05450974 -0.31479275 -0.007614298 0.060006198
-0.3519077 -0.5391944 0.26597956 0.1585919 -0.108067565 -0.09011618 0.27520183 -0.35371172
-0.3195441 -0.21507935 -0.12341906 -0.36946112 0.4112534 0.3150218 0.5100009 0.1080176

module.conv5.bias f4 [2]
00000000: ce87 33bd fba9 53bd
-0.043830685 -0.051675778

module.transconv1.weight f4 [32, 2, 1, 1]
00000000: 60dd 6e3f b587 aabd 94c6 243d dcf1 0ebe
00000010: fafb 57be d16b 733f 3ad8 af3e 2947 9c3e
00000020: 8aea 55bf c255 66be 90ff 21b4 f408 d7b5
00000030: 4c45 333f bf6f 80bd e7c1 4030 5b15 0732
00000040: 10b6 843c 46f0 67bd 44c0 67bf 336f 91be
00000050: f1b0 f1ad cede 67af 3185 02bf ddcb a53f
00000060: 1f2e d43e a3a8 0ebe b42d 6f3f 32c0 aabd
00000070: 3ca7 20ac 0233 19aa ceb7 2e3f 7070 7abd
00000080: 65b3 d93e 1770 b9be 3419 b9be 0fc7 93bf
00000090: c795 ea3d a7ed d03d 5c09 6abf 400a 54bf
000000a0: ef97 4c32 80f3 abb5 a4fa 493f e3f6 86be
000000b0: ea23 f12a e16c 7eab 83fe 2b3f 7331 62be
000000c0: fe62 07bf b5ba 03bf a154 113f 85cc 50bd
000000d0: 88f1 83be 48f5 933f ffe2 acad cfa9 932a
000000e0: d871 fabe 3181 8d3f 6f4e 843e ce80 06bf
000000f0: d7de e2be d86c 6cbf e7a5 3f3f ee4e 89bd
0.9330654 -0.08326665 0.04022844 -0.1395945 -0.21092215 0.9508639 0.34344655 0.3052304
-0.83561003 -0.22493652 -1.5087267e-07 -1.6021354e-06 0.70027614 -0.06271314 7.0124745e-10 7.86289e-09
0.016200095 -0.056625627 -0.9052775 -0.2840515 -2.7477106e-11 -2.1088484e-10 -0.50984484 1.2952839
0.41441438 -0.13931517 0.9342911 -0.083374396 -2.2830201e-12 -1.3606827e-13 0.68249214 -0.061142385
0.4251968 -0.3621833 -0.3615204 -1.1545123 0.11454349 0.102015786 -0.9142053 -0.8282814
1.19089085e-08 -1.2811361e-06 0.7889807 -0.26360235 4.283512e-13 -9.0390027e-13 0.6718523 -0.22089176
-0.52885425 -0.5145677 0.5676976 -0.050976295 -0.2577021 1.1559229 -1.9654943e-11 2.6230274e-13
-0.4891498 1.1055051 0.2584109 -0.5254029 -0.44310638 -0.9235358 0.7486252 -0.06704508

module.transconv1.bias f4 [32]
00000000: c76c 423f 6614 23bd 29a6 423f b1e6 963e
00000010: f4de 213f 3664 2bb5 98e1 113f 59fc 0db1
00000020: 689b 84bc aac7 2f3f c511 53ae 24dc 923d
00000030: dd1d 073d 34ae 423f 47ea 99ab 512c 0e3f
00000040: 7bc7 833d dc77 643f a6fe c53d df2d d5bc
00000050: ba07 2bb5 6460 823d 8df5 a6ab 6794 5d3d
00000060: a178 f63e 007a ec3e 58ad 6c3f fd61 e5ac
00000070: b2d2 6d3f e887 d63e 7161 373f b3f6 1b3f
0.7594723 -0.039814375 0.7603479 0.2947288 0.63230824 -6.384829e-07 0.56984854 -2.0661644e-09
-0.016187385 0.6866404 -4.7991628e-11 0.07170895 0.032987464 0.7604706 -1.0936329e-12 0.5553637
0.06434532 0.8924539 0.09667711 -0.02602285 -6.371371e-07 0.06366041 -1.1863163e-12 0.054096606
0.48138908 0.4618683 0.92452 -6.5194503e-12 0.9289962 0.41900563 0.7163306 0.6092331

module.transconv2.weight f4 [32, 32, 4, 4]
00000000: acb0 88bc 0e8a 0f3c 829e 063a e5d0 e4bc
00000010: 028d 133c dd1f 1038 0639 583c 1403 283c
00000020: 1d90 1bbd 0a6b 02bd bd73 573b e6c1 163c
00000030: ddde cabc d586 ad3b d900 123d da2e e03c
00000040: f56d 6dbd 5798 66bd 4a5a 2dbd 5ce9 4fbd
00000050: 8e69 cebc ff51 5bbd 5d5a 47bd d4c2 22bd
00000060: ee89 2039 e9e1 e2bc fb39 56bd 7f0e 6dbd
00000070: 262e 4fbc 5608 1fbb 49d0 b9bc 7fc7 5bbd
00000080: d650 1d3d e609 e93c 6d32 b53c d2ec 07bc
00000090: d914 ea3c e24d 19b9 4b4d 073c d428 e839
000000a0: 0610 043c 5957 3cbd ee14 193b dcbd 60bb
000000b0: 37e7 e0bc 7d3a 03bd f023 9a3c f5fa 62bc
000000c0: 64f8 493c a3e7 383b c682 b33b 0256 e73c
000000d0: d414 de3b 3c4b 4d3d 03fc 333d 5dec 463b
000000e0: 3e79 6e3d eb6e ba3d 9c2d b73d 2d1e 5e3c
000000f0: 2995 f6bb 3fa8 113c 2b11 083d f3c4 953c
00000100: c5be 993c 7e28 923d 5bb9 8b3d 1dd4 273c
00000110: f5f6 8b3d e00d 073e 8e86 023e 27b2 7e3d
00000120: c3f8 be3d 2585 363e 1d7a 093e e2a1 943d
00000130: ec91 0f3d c78e c23d e668 5b3d 8042 933c
00000140: 0835 103d 68b6 243d d130 a83c 1550 b2bc
00000150: e695 2abd 4cd2 2fbd f90c cebc 4b92 ba3c
00000160: 1daf 99bd b29c 86bd 7c4d 2ebd a123 353d
00000170: 616e 9fbd 4bd9 9abd 3198 30bd 8924 0b3d
00000180: 5c4e 403b 702e 9f3c c92b 253c 83bf 8cbc
00000190: 06e1 123c 387e c7bb c1a2 073c d46d 3e3c
000001a0: e01c 3bbd 0870 c8bc 3e44 a0bb 8338 b03c
000001b0: d4f8 90bc 3394 2bbd ff8c 0a3c 4289 af3b
000001c0: 90ae 0b3d b44e 1d3d d0a5 c13d d1e6 5d3d
000001d0: 1191 a4bc c1a5 aebd ec22 66bd 1997 c13d
000001e0: 8815 4fbd 223a ffbd 44a4 acbd 640e 223d
000001f0: 2240 303c 848e 49bd 2664 8c3d eeb5 ff3c
00000200: 26d1 9fbb 6e94 23bc 4d1b d13b 94d4 e3bc
00000210: 790c afbd 2620 edbd cc8c 14bd aa91 b6ba
00000220: 4f63 afbd 010e 8abd 4c5c b43d eaf2 f7bb
00000230: b5ce 8e3c d68e b13d 4cac aa3d 325d 92bb
00000240: a668 2abb a397 bebc 4ec1 823c 445a 1e3b
00000250: f04d 1a3c 6585 d43c 3a0d 1c3d e109 ee3c
00000260: 617b ffbc 3d97 71bc 856d 703c 77bb 433d
00000270: 5d76 9dbc 998e 0dbd e15d c7bc 3b75 8dbc
00000280: 5f3f 41bd 0769 a1bb 9342 3e3c 8654 9a3c
00000290: 65f2 9bbd 7d4f 8abd cb4c 0abd 73ce 923c
000002a0: 0d22 93bd 16c5 e9bd c734 85bd 1519 ffba
000002b0: a231 17bd 6084 97bd 58d9 8abd 3020 4abd
000002c0: 78a1 26bc 2d87 713c 77c8 1a3a a798 8fbb
000002d0: 8410 a13a 85c4 a53a ad5d 503c f4b4 4e39
000002e0: 809a c5bc 22e4 a1bc bc95 0a3b 2c88 5c3c
000002f0: 6785 a2bc 9cdd e3bc 9006 483c 7625 2fbc
00000300: 4712 2c33 ea76 e1b2 3484 a634 3355 13b3
00000310: e2cc 28b5 9e7a 0bb5 9dc3 3eb5 3c2f 46b5
00000320: 155c fc34 b687 d330 3a28 8f34 e564 3bb3
00000330: 562b 94b5 17da 8ab5 530f 98b5 6914 2db5
00000340: 3ad1 c5bc 5e25 3fbd 13a6 35bb a063 e63c
00000350: e39f 73bd ccb9 37bd a193 8a3c 00cc 873d
00000360: 4b99 493b b4e9 653c 91f3 073d 7919 e63d
00000370: 51c8 3f3c f8c1 833d 5496 903d ead8 2f3d
00000380: 32dd f63b f0bb 43bd ccf9 a1bd 3cb9 68bd
00000390: 5c6e fe3a 6cdb 34bd 6b2a 60bd 14e4 e0bc
000003a0: 7d6c 363a 9fc7 09bc 5d52 9e3c 8b38 433d
000003b0: e4ad d1ba 7826 553d 4e35 7d3d c27e 0d3d
000003c0: 95cf a13c c549 a73c 6367 c43b b5ca f13c
000003d0: 4d3b 483d a750 d63d 018d b63d 7058 3a3b
000003e0: 61e4 693c e56d b63d 44db 5d3d 605d 84bc
000003f0: db30 c6bc fc33 5f3d cc91 3c3d e772 7c3c
-0.016685806 0.008760942 0.0005135314 -0.02793164 0.009005787 3.436195e-05 0.013197189 0.01025464
-0.037979234 -0.03184036 0.0032875382 0.009201502 -0.024764473 0.0052956142 0.03564534 0.02736609
-0.05796619 -0.056297626 -0.042322434 -0.05075966 -0.025196817 -0.053544994 -0.04867016 -0.039736584
0.00015310172 -0.027695613 -0.05230139 -0.057875153 -0.01264528 -0.0024266443 -0.022682326 -0.05365705
0.03840717 0.028447103 0.022118771 -0.008296208 0.028574394 -0.0001462023 0.008258174 0.00044280908
0.008060461 -0.04598174 0.0023358422 -0.0034292853 -0.027454002 -0.0320382 0.018815964 -0.013853778
0.012327287 0.0028214238 0.005478236 0.028239254 0.0067773852 0.050120577 0.04394151 0.0030353286
0.058221094 0.09103187 0.08944246 0.013556999 -0.0075251055 0.008890211 0.033219498 0.01828239
0.018767724 0.071366295 0.06822463 0.010243443 0.06834213 0.13188887 0.12746641 0.062181618
0.09324791 0.17824228 0.13425489 0.07257439 0.03505127 0.09499889 0.053566836 0.017976046
0.035206825 0.04021302 0.02053109 -0.021766702 -0.04164686 -0.042925164 -0.02515267 0.022774836
-0.07504103 -0.06572856 -0.042554364 0.04422343 -0.07784725 -0.075609766 -0.04311389 0.03397039
0.002934358 0.019431323 0.01008124 -0.017181164 0.008964783 -0.0060880445 0.00827855 0.011622865
-0.045681834 -0.024467483 -0.0048909476 0.021511322 -0.017696775 -0.04188938 0.008456468 0.0053569386
0.034102023 0.038405135 0.09455454 0.0541752 -0.020088704 -0.08527709 -0.056185648 0.09452648
-0.050557643 -0.1246226 -0.08429769 0.039564505 0.010757478 -0.04920818 0.06855039 0.03121468
-0.0048772274 -0.009984119 0.0063814283 -0.027811326 -0.08547301 -0.115783975 -0.036267087 -0.0013928909
-0.085638635 -0.06740952 0.08806667 -0.0075667994 0.01743255 0.08669822 0.08333644 -0.004466676
-0.0026002317 -0.023265665 0.015961315 0.002416269 0.009417996 0.025942514 0.03809855 0.029057445
-0.031186761 -0.014745531 0.014674549 0.047786202 -0.01922148 -0.03455982 -0.024336757 -0.017267814
-0.047179576 -0.0049258503 0.011612552 0.018839132 -0.076145925 -0.067534424 -0.03376464 0.017920708
-0.07184229 -0.11414544 -0.06504207 -0.0019462431 -0.036912568 -0.073982954 -0.06779736 -0.049347103
-0.010170333 0.014741701 0.00059045054 -0.0043822112 0.0012288247 0.0012647068 0.012717647 0.00019713101
-0.024121523 -0.019762103 0.0021146378 0.0134602 -0.019839002 -0.027815633 0.012208596 -0.010690084
4.0063494e-08 -2.6247523e-08 3.10161e-07 -3.4303593e-08 -6.288302e-07 -5.1959967e-07 -7.106517e-07 -7.3829483e-07
4.7005656e-07 1.5390842e-09 2.6665094e-07 -4.3631093e-08 -1.1039472e-06 -1.0345274e-06 -1.1329342e-06 -6.4477223e-07
-0.024147619 -0.046666496 -0.0027717396 0.028123677 -0.05947865 -0.044854924 0.016916098 0.06630707
0.0030761536 0.01403277 0.033191267 0.11235327 0.011705474 0.06433481 0.07059923 0.042931475
0.0075336928 -0.047786653 -0.07908973 -0.05681728 0.0019411552 -0.04415457 -0.054727953 -0.027452506
0.0006958915 -0.00840941 0.019326383 0.047661345 -0.0015997258 0.05203864 0.061818413 0.034544714
0.019752303 0.020420918 0.00599377 0.029515604 0.04888468 0.10464602 0.08913613 0.002843406
0.014275641 0.089076795 0.054164186 -0.016157806 -0.024193218 0.054492936 0.04603748 0.015408254

module.transconv2.bias f4 [32]
00000000: 3b72 4a3e 2012 5d3e 7d82 233e 3447 1e3c
00000010: b987 f33d 3ea2 183e 34b2 b03d 5c40 0fbc
00000020: b3e8 a6bb 1b6a 983c 2831 e93d 3877 f33d
00000030: ff10 5eb6 506d 2f3e 2b95 2a3d 67f3 fb3c
00000040: 75d5 3b3d 1d9a 113c 0537 ad3d 4c23 fa3d
00000050: 9334 1b3d 2a49 2c3e 7146 b13d bdbc 0fb2
00000060: 0234 fd3a ba02 a33e 9be4 973e e1c9 173e
00000070: 7a0f 933e 1c17 803e b930 a33e 325e 693b
0.19770138 0.21588945 0.15967746 0.009660531 0.118911214 0.1490564 0.086277395 -0.008743372
-0.005093658 0.018605283 0.11386329 0.118879735 -3.309047e-06 0.17131543 0.041646164 0.030755712
0.045857865 0.008886841 0.0845776 0.122137636 0.037891936 0.16824785 0.08656014 -8.36661e-09
0.0019317868 0.31838018 0.296666 0.14823104 0.28722745 0.2501763 0.3187311 0.0035609123

module.transconv3.weight f4 [32, 32, 4, 4]
00000000: 4c61 5038 9820 40b8 21df 4638 0f69 53b8
00000010: 6ab1 adb7 3519 11b9 10db acb7 7378 13b9
00000020: e89f f2b7 709e 0837 f497 42b8 d904 0eb7
00000030: 5a20 bbb7 c149 f2b8 0fad 8fb7 d257 f3b8
00000040: 2d64 e33b d5e6 df3c 92e6 db3c 9cec 8a39
00000050: 284e 183d bd6b 713d 0d10 8e3d 6e5a 113d
00000060: 6d24 1c3d ddf6 803d bb65 993d ddb2 523d
00000070: 00d0 8b3b 99db b83c 3156 fa3c 2ab5 8d3c
00000080: 4e47 b23b 2272 b13c bb7b ae3c d8a0 c138
00000090: 13de f23c 560f 403d b2e1 623d 2b91 e83c
000000a0: 21a8 fa3c 3516 4e3d 4ef1 753d 7355 293d
000000b0: bbc0 553b 809d 913c 8699 c73c fb9e 633c
000000c0: f165 683c c152 033d 8eef 0b3d ff8d 643c
000000d0: fe35 f83c 2111 5f3d d151 473d 0ef3 ca3c
000000e0: a2c8 0d3d a4e0 713d 40d6 3b3d ae8b a83c
000000f0: dc5b a83c ebe8 273d 58f6 f03c 3ad0 bf3b
00000100: 924e e4bc 83c3 2f3c 3f19 b2ba 84b7 00bd
00000110: cc36 013c 6d6e 5d3d 826c 493d 3ee4 033c
00000120: 5705 d23a daab 123d 0e50 1e3d 7200 473a
00000130: e838 133b 8c59 ba3c 9fb9 bc3c cb62 44bb
00000140: 93a4 6f3c 8417 c73d 9af8 de3d 38d9 e73c
00000150: 6d82 d33d 207c 503e 9e00 5b3e 38e3 ea3d
00000160: 136e c73d c4b7 443e 9039 4e3e ebad d53d
00000170: e448 063d 7dc4 d33d 5e1d df3d 6a5e df3c
00000180: e1bb 9e3b a315 9b3c 5ce9 983c c175 8739
00000190: 2245 d33c 07c8 263d 2d6e 453d 80cc ca3c
000001a0: dd12 db3c c07c 333d ec7e 563d 46f5 133d
000001b0: 05c1 3a3b e55b 7c3c 71c7 ad3c 5e4e 473c
000001c0: 09e8 8ebd 24a3 7dbd 2464 68bc 2976 f9bc
000001d0: b709 38bd 873a d6bc 6d6d 983c e08d f03c
000001e0: f7bf f7bd 4a5e bfbd 0d02 34bd e457 edbc
000001f0: 893b dcbd 58cb d1bd e51e 35bd f7b7 17bd
00000200: 5d7a 363c 0000 b83c 8403 cf3c 5927 153c
00000210: 7deb bb3c 5c0a 183d b8e2 2f3d 07da a53c
00000220: 2139 b53c 5de7 113d 91ff 3b3d 7e7f e33c
00000230: 7155 c0ba e678 ac3b 0e25 613c b21e 4e3b
00000240: bd8a 5bbc 990c aebc ca01 dfbc a87f 95bc
00000250: af61 ddbc e4aa 36bd 0bab 2fbd 16bd d6bc
00000260: 0bb4 c8bc 7f70 06bd f35e febc f7db b4bc
00000270: aad6 dabc 8819 b4bb 5589 b4bc e12a 2d3a
00000280: f9b5 f33c 2fa4 183d 2bbb dc3c 1643 073c
00000290: e81d 0f3d 4f83 453d 4063 013d 0434 3b3c
000002a0: 4ded 963c d6e6 ea3c 9d91 e63b 3191 44bc
000002b0: 7d2a 823b e7d7 5d3c 0ce9 d2bb 2a89 c2bc
000002c0: e9d1 16bb 247c a1ba d594 e1bb a194 25bc
000002d0: eaf0 153c 1fb2 c33b c833 9c3b f312 473b
000002e0: d485 ec3a 3bfb e93a 192c 673b 0a41 05ba
000002f0: a50f 563b 44f4 bd3b 6cd8 0e3c 58da b5b9
00000300: 8e52 482f 66c3 dcae f9a3 282f fb08 aaae
00000310: 81cb 4e2f 3f9e 30ae 0f9d b92e 24c4 2dae
00000320: db81 842f 6c45 ffae 0121 782f 555c 89ad
00000330: 6bd5 7f2e a8a1 fbad b086 1c2d 13d4 0fae
00000340: b44b 11b0 0a03 d4ad 21ec 16b0 d30e 0fae
00000350: 31a3 40b0 57cd 612f 1828 45b0 31d2 102f
00000360: 5e7c 1ab0 751f 282f 3a66 25b0 2bc0 062f
00000370: 381a 67b0 0e4a fe2f a99d 71b0 f1f0 cd2f
00000380: e2c2 24af 5527 9a2f 424e 8faf 4c31 272f
00000390: 707e 31b0 ad16 52ae 63ef 36b0 dd5e e6ae
000003a0: 8b61 96af 4161 a32f 90a8 9aaf 2749 a32f
000003b0: 7c43 51b0 9cd5 44af 3b82 61b0 660a 83af
000003c0: 7c26 dd3b 76c5 713c 3c11 813c c0f1 c73b
000003d0: b936 673c dcf7 ce3c 394d b83c 6c8e 393c
000003e0: 35b4 833c 7f46 e03c 1725 ad3c aed1 193c
000003f0: f48c 1c3c 329a 9b3c 32ad 5d3c 7f93 233b
4.968168e-05 -4.5806722e-05 4.7414684e-05 -5.0404164e-05 -2.0705822e-05 -0.00013837668 -2.0606007e-05 -0.00014063883
-2.892311e-05 8.143121e-06 -4.639472e-05 -8.464988e-06 -2.2307202e-05 -0.00011553197 -1.7127515e-05 -0.00011603501
0.006939432 0.027331749 0.026843343 0.000264977 0.03718391 0.058940638 0.06936655 0.03548663
0.038120676 0.062970854 0.07490107 0.05144011 0.004266739 0.02256565 0.030558677 0.0172983
0.005440629 0.021660868 0.021299234 9.232917e-05 0.029646909 0.046889625 0.05539102 0.028389534
0.030597748 0.050314147 0.06004458 0.041341256 0.0032616097 0.017775297 0.024365198 0.013892884
0.014184461 0.032061342 0.034164004 0.01394987 0.030299183 0.054459695 0.04866201 0.0247741
0.034615166 0.059052125 0.04585862 0.020574417 0.020551614 0.040993612 0.02941434 0.00585368
-0.027869496 0.010727766 -0.0013587846 -0.031425014 0.0078866 0.05406039 0.049175747 0.008050023
0.001602332 0.03580842 0.038650565 0.0007591314 0.0022464339 0.022747777 0.02303773 -0.0029966112
0.01462664 0.09721282 0.10887261 0.02830182 0.10327611 0.2035985 0.21386954 0.1146912
0.09737792 0.19210726 0.20139146 0.10433563 0.032784358 0.103402115 0.10894273 0.0272667
0.0048441743 0.018931216 0.018665962 0.0002583694 0.025789801 0.040718105 0.048200775 0.024755716
0.026742393 0.043820143 0.052367136 0.036122583 0.0028496396 0.015402769 0.021213265 0.01216468
-0.06977851 -0.06192316 -0.014184032 -0.030451851 -0.04493114 -0.026150955 0.018606866 0.029364526
-0.12097161 -0.09344156 -0.04394727 -0.028972574 -0.10753543 -0.10243863 -0.044218916 -0.037040677
0.011137572 0.022460938 0.025270231 0.0091036195 0.022939438 0.037119254 0.042940825 0.020245565
0.022121968 0.035621036 0.045898024 0.027770754 -0.0014673901 0.0052634357 0.013741745 0.0031451401
-0.013399777 -0.021246241 -0.027222533 -0.018249348 -0.027024118 -0.044596568 -0.04288773 -0.02621321
-0.024499914 -0.03282213 -0.031051135 -0.022077544 -0.026713688 -0.0054962076 -0.022038141 0.0006605816
0.029749857 0.037265953 0.026944717 0.008255741 0.03494063 0.04822093 0.031588793 0.011425976
0.0184237 0.028674524 0.0070364014 -0.011997507 0.00397235 0.013540245 -0.0064364728 -0.023747046
-0.00230133 -0.0012320322 -0.0068841972 -0.010106237 0.009151677 0.0059721614 0.004766915 0.0030376285
0.0018045255 0.0017851362 0.0035274087 -0.0005083239 0.0032663133 0.005796941 0.008718591 -0.0003468569
1.8219223e-10 -1.00391515e-10 1.5337766e-10 -7.7323e-11 1.880789e-10 -4.0158318e-11 8.440725e-11 -3.9509854e-11
2.4102928e-10 -1.1608389e-10 2.2567194e-10 -1.56161e-11 5.816984e-11 -2.8607186e-11 8.89748e-12 -3.2702795e-11
-5.2858273e-10 -2.410296e-11 -5.490524e-10 -3.2527602e-11 -7.00811e-10 2.0536582e-10 -7.172516e-10 1.3171399e-10
-5.620161e-10 1.5290687e-10 -6.0171923e-10 1.2255501e-10 -8.407457e-10 4.625495e-10 -8.789934e-10 3.7460482e-10
-1.498495e-10 2.8040384e-10 -2.6067154e-10 1.5206075e-10 -6.4571903e-10 -4.7768612e-11 -6.6551403e-10 -1.047604e-10
-2.735415e-10 2.971863e-10 -2.8132208e-10 2.9701505e-10 -7.612966e-10 -1.7901985e-10 -8.203959e-10 -2.383615e-10
0.0067489725 0.014756551 0.015755288 0.006101817 0.014112168 0.025264673 0.02249776 0.01132546
0.01607714 0.027377365 0.02113585 0.00938837 0.00955509 0.018994424 0.0135300625 0.002495974

module.transconv3.bias f4 [32]
00000000: d2de ecb8 7304 463e e445 1e3e 6934 243e
00000010: 4e22 593d 7018 953e f86b 093e 701d cb3d
00000020: e08a 943d 008f 393e 3240 a73d 7165 623e
00000030: 098d 15b0 a099 30b0 9aa3 c5b0 5c81 9a3d
00000040: a4a0 3e3e 6d37 b83e 510a bb3d 13b5 603e
00000050: c324 0bb2 9a5c afb1 f0c9 2fb8 0cb1 2f3e
00000060: 64b0 3f3e 9c69 233e 0dd4 ad3d af03 f23d
00000070: 7654 a93d 555f 483e 12ca b83d 5a66 edb9
-0.000112948605 0.19337635 0.15456349 0.16035618 0.05301123 0.29120207 0.13420093 0.09917724
0.07253051 0.18120956 0.08166541 0.2210901 -5.440631e-10 -6.424674e-10 -1.4380135e-09 0.075442046
0.18615967 0.35979787 0.09132827 0.21944074 -8.0992235e-09 -5.103698e-09 -4.191132e-05 0.17157382
0.18719631 0.15958256 0.08487711 0.11817109 0.08268063 0.19567616 0.09022917 -0.0004528042
